…
2019-01-12 22:29:15 - INFO - Layer                           Kernel Shape          Stride        Gradient              Output Shape         # Params (K)      # Mult-Adds (M)
2019-01-12 22:29:15 - INFO - ======================================================================================================================================================
2019-01-12 22:29:15 - INFO - 0_Data          	                   -               -           False          [256, 3, 32, 32]                    _                    _
2019-01-12 22:29:15 - INFO - 1_Conv2d        	       [3, 64, 7, 7]          [2, 2]            True         [256, 64, 16, 16]                 9.41                 2.41
2019-01-12 22:29:15 - INFO - 2_BatchNorm2d   	                [64]               -            True         [256, 64, 16, 16]                 0.13                 0.00
2019-01-12 22:29:15 - INFO - 3_MaxPool2d     	                   -               -               -           [256, 64, 8, 8]                    -                    -
2019-01-12 22:29:15 - INFO - 4_Conv2d        	      [64, 64, 3, 3]          [1, 1]            True           [256, 64, 8, 8]                36.86                 2.36
2019-01-12 22:29:15 - INFO - 5_BatchNorm2d   	                [64]               -            True           [256, 64, 8, 8]                 0.13                 0.00
2019-01-12 22:29:15 - INFO - 6_Conv2d        	      [64, 64, 3, 3]          [1, 1]            True           [256, 64, 8, 8]                36.86                 2.36
2019-01-12 22:29:15 - INFO - 7_BatchNorm2d   	                [64]               -            True           [256, 64, 8, 8]                 0.13                 0.00
2019-01-12 22:29:15 - INFO - 8_Sequential    	                   -               -               -           [256, 64, 8, 8]                    -                    -
2019-01-12 22:29:15 - INFO - 9_Conv2d        	      [64, 64, 3, 3]          [1, 1]            True           [256, 64, 8, 8]                36.86                 2.36
2019-01-12 22:29:15 - INFO - 10_BatchNorm2d  	                [64]               -            True           [256, 64, 8, 8]                 0.13                 0.00
2019-01-12 22:29:15 - INFO - 11_Conv2d       	      [64, 64, 3, 3]          [1, 1]            True           [256, 64, 8, 8]                36.86                 2.36
2019-01-12 22:29:15 - INFO - 12_BatchNorm2d  	                [64]               -            True           [256, 64, 8, 8]                 0.13                 0.00
2019-01-12 22:29:15 - INFO - 13_Sequential   	                   -               -               -           [256, 64, 8, 8]                    -                    -
2019-01-12 22:29:15 - INFO - 14_Conv2d       	     [64, 128, 3, 3]          [2, 2]            True          [256, 128, 4, 4]                73.73                 1.18
2019-01-12 22:29:15 - INFO - 15_BatchNorm2d  	               [128]               -            True          [256, 128, 4, 4]                 0.26                 0.00
2019-01-12 22:29:15 - INFO - 16_Conv2d       	    [128, 128, 3, 3]          [1, 1]            True          [256, 128, 4, 4]               147.46                 2.36
2019-01-12 22:29:15 - INFO - 17_BatchNorm2d  	               [128]               -            True          [256, 128, 4, 4]                 0.26                 0.00
2019-01-12 22:29:15 - INFO - 18_Conv2d       	     [64, 128, 1, 1]          [2, 2]            True          [256, 128, 4, 4]                 8.19                 0.13
2019-01-12 22:29:15 - INFO - 19_BatchNorm2d  	               [128]               -            True          [256, 128, 4, 4]                 0.26                 0.00
2019-01-12 22:29:15 - INFO - 20_Conv2d       	    [128, 128, 3, 3]          [1, 1]            True          [256, 128, 4, 4]               147.46                 2.36
2019-01-12 22:29:15 - INFO - 21_BatchNorm2d  	               [128]               -            True          [256, 128, 4, 4]                 0.26                 0.00
2019-01-12 22:29:15 - INFO - 22_Conv2d       	    [128, 128, 3, 3]          [1, 1]            True          [256, 128, 4, 4]               147.46                 2.36
2019-01-12 22:29:15 - INFO - 23_BatchNorm2d  	               [128]               -            True          [256, 128, 4, 4]                 0.26                 0.00
2019-01-12 22:29:15 - INFO - 24_Sequential   	                   -               -               -          [256, 128, 4, 4]                    -                    -
2019-01-12 22:29:15 - INFO - 25_Conv2d       	    [128, 256, 3, 3]          [2, 2]            True          [256, 256, 2, 2]               294.91                 1.18
2019-01-12 22:29:15 - INFO - 26_BatchNorm2d  	               [256]               -            True          [256, 256, 2, 2]                 0.51                 0.00
2019-01-12 22:29:15 - INFO - 27_Conv2d       	    [256, 256, 3, 3]          [1, 1]            True          [256, 256, 2, 2]               589.82                 2.36
2019-01-12 22:29:15 - INFO - 28_BatchNorm2d  	               [256]               -            True          [256, 256, 2, 2]                 0.51                 0.00
2019-01-12 22:29:15 - INFO - 29_Conv2d       	    [128, 256, 1, 1]          [2, 2]            True          [256, 256, 2, 2]                32.77                 0.13
2019-01-12 22:29:15 - INFO - 30_BatchNorm2d  	               [256]               -            True          [256, 256, 2, 2]                 0.51                 0.00
2019-01-12 22:29:15 - INFO - 31_Conv2d       	    [256, 256, 3, 3]          [1, 1]            True          [256, 256, 2, 2]               589.82                 2.36
2019-01-12 22:29:15 - INFO - 32_BatchNorm2d  	               [256]               -            True          [256, 256, 2, 2]                 0.51                 0.00
2019-01-12 22:29:15 - INFO - 33_Conv2d       	    [256, 256, 3, 3]          [1, 1]            True          [256, 256, 2, 2]               589.82                 2.36
2019-01-12 22:29:15 - INFO - 34_BatchNorm2d  	               [256]               -            True          [256, 256, 2, 2]                 0.51                 0.00
2019-01-12 22:29:15 - INFO - 35_Sequential   	                   -               -               -          [256, 256, 2, 2]                    -                    -
2019-01-12 22:29:15 - INFO - 36_Conv2d       	    [256, 512, 3, 3]          [2, 2]            True          [256, 512, 1, 1]             1,179.65                 1.18
2019-01-12 22:29:15 - INFO - 37_BatchNorm2d  	               [512]               -            True          [256, 512, 1, 1]                 1.02                 0.00
2019-01-12 22:29:15 - INFO - 38_Conv2d       	    [512, 512, 3, 3]          [1, 1]            True          [256, 512, 1, 1]             2,359.30                 2.36
2019-01-12 22:29:15 - INFO - 39_BatchNorm2d  	               [512]               -            True          [256, 512, 1, 1]                 1.02                 0.00
2019-01-12 22:29:15 - INFO - 40_Conv2d       	    [256, 512, 1, 1]          [2, 2]            True          [256, 512, 1, 1]               131.07                 0.13
2019-01-12 22:29:15 - INFO - 41_BatchNorm2d  	               [512]               -            True          [256, 512, 1, 1]                 1.02                 0.00
2019-01-12 22:29:15 - INFO - 42_Conv2d       	    [512, 512, 3, 3]          [1, 1]            True          [256, 512, 1, 1]             2,359.30                 2.36
2019-01-12 22:29:15 - INFO - 43_BatchNorm2d  	               [512]               -            True          [256, 512, 1, 1]                 1.02                 0.00
2019-01-12 22:29:15 - INFO - 44_Conv2d       	    [512, 512, 3, 3]          [1, 1]            True          [256, 512, 1, 1]             2,359.30                 2.36
2019-01-12 22:29:15 - INFO - 45_BatchNorm2d  	               [512]               -            True          [256, 512, 1, 1]                 1.02                 0.00
2019-01-12 22:29:15 - INFO - 46_Sequential   	                   -               -               -          [256, 512, 1, 1]                    -                    -
2019-01-12 22:29:15 - INFO - 47_AdaptiveAvgPool2d 	                   -               -               -          [256, 512, 1, 1]                    -                    -
2019-01-12 22:29:15 - INFO - 48_Linear       	           [512, 10]               -            True                 [256, 10]                 5.13                 0.01
2019-01-12 22:29:15 - INFO - ======================================================================================================================================================
2019-01-12 22:29:15 - INFO - # Params:    11,181.64K
2019-01-12 22:29:15 - INFO - # Mult-Adds: 37.02M
2019-01-12 22:29:15 - INFO - # GFLOPS:    0.0000G
2019-01-12 22:29:15 - INFO - ------------------------------------------------------------------------------------------------------------------------------------------------------
…
